…
{'tree_method': 'hist', 'subsample': 0.5, 'reg_alpha': 0.0, 'n_estimators': 500, 'max_depth': 1, 'learning_rate': 0.1, 'colsample_bytree': 0.5}

Fitting 10 folds for each of 10 candidates, totalling 100 fits
XGBoost for channel 1
0.802
{'tree_method': 'hist', 'subsample': 0.5, 'reg_alpha': 0.0, 'n_estimators': 500, 'max_depth': 1, 'learning_rate': 0.1, 'colsample_bytree': 0.7}

Время обработки =  1386.069


FCNN:
Model: "FCNN"
_________________________________________________________________
 Layer (type)                Output Shape              Param #   
=================================================================
 dense (Dense)               (None, 512)               65536     
                                                                 
 dropout (Dropout)           (None, 512)               0         
                                                                 
 dense_1 (Dense)             (None, 512)               262656    
                                                                 
 dropout_1 (Dropout)         (None, 512)               0         
                                                                 
 dense_2 (Dense)             (None, 39)                20007     
                                                                 
=================================================================
Total params: 348,199
Trainable params: 348,199
Non-trainable params: 0
_________________________________________________________________

channel0
Training Accuracy:  1.0
Testing Accuracy:  0.915
channel1
Training Accuracy:  1.0
Testing Accuracy:  0.904

Время обработки =  80.535


CNN:
Model: "CNN"
_________________________________________________________________
 Layer (type)                Output Shape              Param #   
=================================================================
 input_1 (InputLayer)        [(None, 127, 23)]         0         
                                                                 
 conv1d (Conv1D)             (None, 127, 128)          8960      
                                                                 
 max_pooling1d (MaxPooling1D  (None, 63, 128)          0         
 )                                                               
                                                                 
 dropout (Dropout)           (None, 63, 128)           0         
                                                                 
 conv1d_1 (Conv1D)           (None, 63, 256)           98560     
                                                                 
 max_pooling1d_1 (MaxPooling  (None, 31, 256)          0         
 1D)                                                             
                                                                 
 dropout_1 (Dropout)         (None, 31, 256)           0         
                                                                 
 flatten (Flatten)           (None, 7936)              0         
                                                                 
 dense (Dense)               (None, 512)               4063744   
                                                                 
 dense_1 (Dense)             (None, 39)                20007     
                                                                 
=================================================================
Total params: 4,191,271
Trainable params: 4,191,271
Non-trainable params: 0
_________________________________________________________________

channel0
Training Accuracy:  1.0
Testing Accuracy:  0.941
channel1
Training Accuracy:  1.0
Testing Accuracy:  0.915

Время обработки =  369.113


Model: "GRU"
__________________________________________________________________________________________________
 Layer (type)                   Output Shape         Param #     Connected to                     
==================================================================================================
 input_1 (InputLayer)           [(None, 127, 23, 1)  0           []                               
                                ]                                                                 
                                                                                                  
 permute (Permute)              (None, 23, 127, 1)   0           ['input_1[0][0]']                
                                                                                                  
 permute_1 (Permute)            (None, 23, 127, 1)   0           ['input_1[0][0]']                
                                                                                                  
 permute_2 (Permute)            (None, 23, 127, 1)   0           ['input_1[0][0]']                
                                                                                                  
 permute_3 (Permute)            (None, 23, 127, 1)   0           ['input_1[0][0]']                
                                                                                                  
 lambda (Lambda)                (None, 23, 127)      0           ['permute[0][0]']                
                                                                                                  
 lambda_1 (Lambda)              (None, 23, 127)      0           ['permute_1[0][0]']              
                                                                                                  
 lambda_2 (Lambda)              (None, 23, 127)      0           ['permute_2[0][0]']              
                                                                                                  
 lambda_3 (Lambda)              (None, 23, 127)      0           ['permute_3[0][0]']              
                                                                                                  
 bidirectional (Bidirectional)  (None, 256)          197376      ['lambda[0][0]']                 
                                                                                                  
 bidirectional_1 (Bidirectional  (None, 256)         197376      ['lambda_1[0][0]']               
 )                                                                                                
                                                                                                  
 bidirectional_2 (Bidirectional  (None, 256)         197376      ['lambda_2[0][0]']               
 )                                                                                                
                                                                                                  
 bidirectional_3 (Bidirectional  (None, 256)         197376      ['lambda_3[0][0]']               
 )                                                                                                
                                                                                                  
 concatenate (Concatenate)      (None, 1024)         0           ['bidirectional[0][0]',          
                                                                  'bidirectional_1[0][0]',        
                                                                  'bidirectional_2[0][0]',        
                                                                  'bidirectional_3[0][0]']        
                                                                                                  
 dense (Dense)                  (None, 39)           39975       ['concatenate[0][0]']            
                                                                                                  
==================================================================================================
Total params: 829,479
Trainable params: 829,479
Non-trainable params: 0
__________________________________________________________________________________________________
…
