…
Training Accuracy:  1.0
Testing Accuracy:  0.92

Время обработки =  38.441

CNN:
channel0
Training Accuracy:  1.0
Testing Accuracy:  0.915
channel1
Training Accuracy:  1.0
Testing Accuracy:  0.957

Время обработки =  73.839

RNN:
channel0
Training Accuracy:  1.0
Testing Accuracy:  0.957
channel1
Training Accuracy:  1.0
Testing Accuracy:  0.973

Время обработки =  916.61


Model: "FCNN"
_________________________________________________________________
 Layer (type)                Output Shape              Param #   
=================================================================
 dense (Dense)               (None, 1024)              131072

 dropout (Dropout)           (None, 1024)              0

 dense_1 (Dense)             (None, 1024)              1049600

 dropout_1 (Dropout)         (None, 1024)              0

 dense_2 (Dense)             (None, 39)                39975

=================================================================
Total params: 1,220,647
Trainable params: 1,220,647
Non-trainable params: 0


Model: "CNN"
_________________________________________________________________
 Layer (type)                Output Shape              Param #   
=================================================================
 input_1 (InputLayer)        [(None, 127, 23)]         0         
                                                                 
 conv1d (Conv1D)             (None, 127, 128)          8960      
                                                                 
 max_pooling1d (MaxPooling1D  (None, 63, 128)          0         
 )                                                               
                                                                 
 dropout (Dropout)           (None, 63, 128)           0         
                                                                 
 conv1d_1 (Conv1D)           (None, 63, 256)           98560     
                                                                 
 max_pooling1d_1 (MaxPooling  (None, 31, 256)          0         
 1D)                                                             
                                                                 
 dropout_1 (Dropout)         (None, 31, 256)           0         
                                                                 
 flatten (Flatten)           (None, 7936)              0         
                                                                 
 dense (Dense)               (None, 1024)              8127488

 dense_1 (Dense)             (None, 39)                39975

=================================================================
Total params: 8,274,983
Trainable params: 8,274,983
Non-trainable params: 0
 

Model: "GRU"
__________________________________________________________________________________________________
 Layer (type)                   Output Shape         Param #     Connected to                     
==================================================================================================
 input_1 (InputLayer)           [(None, 127, 23, 1)  0           []                               
                                ]                                                                 
                                                                                                  
 permute (Permute)              (None, 23, 127, 1)   0           ['input_1[0][0]']                
                                                                                                  
 permute_1 (Permute)            (None, 23, 127, 1)   0           ['input_1[0][0]']                
                                                                                                  
 permute_2 (Permute)            (None, 23, 127, 1)   0           ['input_1[0][0]']                
                                                                                                  
 permute_3 (Permute)            (None, 23, 127, 1)   0           ['input_1[0][0]']                
                                                                                                  
 lambda (Lambda)                (None, 23, 127)      0           ['permute[0][0]']                
                                                                                                  
 lambda_1 (Lambda)              (None, 23, 127)      0           ['permute_1[0][0]']              
                                                                                                  
 lambda_2 (Lambda)              (None, 23, 127)      0           ['permute_2[0][0]']              
                                                                                                  
 lambda_3 (Lambda)              (None, 23, 127)      0           ['permute_3[0][0]']              
                                                                                                  
 bidirectional (Bidirectional)  (None, 256)          197376      ['lambda[0][0]']                 
                                                                                                  
 bidirectional_1 (Bidirectional  (None, 256)         197376      ['lambda_1[0][0]']               
 )                                                                                                
                                                                                                  
 bidirectional_2 (Bidirectional  (None, 256)         197376      ['lambda_2[0][0]']               
 )                                                                                                
                                                                                                  
 bidirectional_3 (Bidirectional  (None, 256)         197376      ['lambda_3[0][0]']               
 )                                                                                                
                                                                                                  
 concatenate (Concatenate)      (None, 1024)         0           ['bidirectional[0][0]',          
                                                                  'bidirectional_1[0][0]',        
                                                                  'bidirectional_2[0][0]',        
                                                                  'bidirectional_3[0][0]']        
                                                                                                  
 dense (Dense)                  (None, 39)           39975       ['concatenate[0][0]']            
                                                                                                  
==================================================================================================
Total params: 829,479
Trainable params: 829,479
Non-trainable params: 0
__________________________________________________________________________________________________
…
 Layer (type)                   Output Shape         Param #     Connected to                     
==================================================================================================
 input_1 (InputLayer)           [(None, 127)]        0           []                               
                                                                                                  
 input_2 (InputLayer)           [(None, 127)]        0           []                               
                                                                                                  
 dense (Dense)                  (None, 256)          32768       ['input_1[0][0]']                
                                                                                                  
 dense_2 (Dense)                (None, 256)          32768       ['input_2[0][0]']                
                                                                                                  
 dropout (Dropout)              (None, 256)          0           ['dense[0][0]']                  
                                                                                                  
 dropout_2 (Dropout)            (None, 256)          0           ['dense_2[0][0]']                
                                                                                                  
 dense_1 (Dense)                (None, 256)          65792       ['dropout[0][0]']                
                                                                                                  
 dense_3 (Dense)                (None, 256)          65792       ['dropout_2[0][0]']              
                                                                                                  
 dropout_1 (Dropout)            (None, 256)          0           ['dense_1[0][0]']                
                                                                                                  
 dropout_3 (Dropout)            (None, 256)          0           ['dense_3[0][0]']                
                                                                                                  
 concatenate (Concatenate)      (None, 512)          0           ['dropout_1[0][0]',              
                                                                  'dropout_3[0][0]']              
                                                                                                  
 dense_4 (Dense)                (None, 256)          131328      ['concatenate[0][0]']            
                                                                                                  
 dropout_4 (Dropout)            (None, 256)          0           ['dense_4[0][0]']                
                                                                                                  
 dense_5 (Dense)                (None, 39)           10023       ['dropout_4[0][0]']              
                                                                                                  
==================================================================================================
Total params: 338,471
Trainable params: 338,471
Non-trainable params: 0
__________________________________________________________________________________________________
…
 Layer (type)                   Output Shape         Param #     Connected to                     
==================================================================================================
 input_1 (InputLayer)           [(None, 127, 23)]    0           []                               
                                                                                                  
 input_2 (InputLayer)           [(None, 127, 23)]    0           []                               
                                                                                                  
 conv1d_1 (Conv1D)              (None, 123, 64)      7424        ['input_1[0][0]']                
                                                                                                  
 conv1d_4 (Conv1D)              (None, 123, 64)      7424        ['input_2[0][0]']                
                                                                                                  
 max_pooling1d_1 (MaxPooling1D)  (None, 61, 64)      0           ['conv1d_1[0][0]']               
                                                                                                  
 max_pooling1d_4 (MaxPooling1D)  (None, 61, 64)      0           ['conv1d_4[0][0]']               
                                                                                                  
 dropout_1 (Dropout)            (None, 61, 64)       0           ['max_pooling1d_1[0][0]']        
                                                                                                  
 dropout_4 (Dropout)            (None, 61, 64)       0           ['max_pooling1d_4[0][0]']        
                                                                                                  
 conv1d_2 (Conv1D)              (None, 59, 128)      24704       ['dropout_1[0][0]']              
                                                                                                  
 conv1d_5 (Conv1D)              (None, 59, 128)      24704       ['dropout_4[0][0]']              
                                                                                                  
 max_pooling1d_2 (MaxPooling1D)  (None, 29, 128)     0           ['conv1d_2[0][0]']               
                                                                                                  
 max_pooling1d_5 (MaxPooling1D)  (None, 29, 128)     0           ['conv1d_5[0][0]']               
                                                                                                  
 dropout_2 (Dropout)            (None, 29, 128)      0           ['max_pooling1d_2[0][0]']        
                                                                                                  
 dropout_5 (Dropout)            (None, 29, 128)      0           ['max_pooling1d_5[0][0]']        
                                                                                                  
 average (Average)              (None, 29, 128)      0           ['dropout_2[0][0]',              
                                                                  'dropout_5[0][0]']              
                                                                                                  
 flatten (Flatten)              (None, 3712)         0           ['average[0][0]']                
                                                                                                  
 dense (Dense)                  (None, 1024)         3802112     ['flatten[0][0]']

 dropout_6 (Dropout)            (None, 1024)         0           ['dense[0][0]']

 dense_1 (Dense)                (None, 39)           39975       ['dropout_6[0][0]']

==================================================================================================
Total params: 3,906,343
Trainable params: 3,906,343
Non-trainable params: 0

channels
Training Accuracy:  1.0
Testing Accuracy:  0.941
Время обработки =  30.599
